…
ta":{"colab":{"base_uri":"https://localhost:8080/"},"executionInfo":{"elapsed":310,"status":"ok","timestamp":1716945879083,"user":{"displayName":"127 ENA","userId":"00901681442892532189"},"user_tz":-540},"id":"lGf_UOWCViUw","outputId":"a031173b-16dc-44c7-c9ef-e39176bf5d9c"},"outputs":[{"output_type":"stream","name":"stdout","text":["Model: \"sequential\"\n","_________________________________________________________________\n"," Layer (type)                Output Shape              Param #   \n","=================================================================\n"," dense (Dense)               (None, 16384)             819200    \n","                                                                 \n"," leaky_re_lu (LeakyReLU)     (None, 16384)             0         \n","                                                                 \n"," reshape (Reshape)           (None, 8, 8, 256)         0         \n","                                                                 \n"," conv2d_transpose (Conv2DTr  (None, 16, 16, 128)       819200    \n"," anspose)                                                        \n","                                                                 \n"," leaky_re_lu_1 (LeakyReLU)   (None, 16, 16, 128)       0         \n","                                                                 \n"," dropout (Dropout)           (None, 16, 16, 128)       0         \n","                                                                 \n"," conv2d_transpose_1 (Conv2D  (None, 32, 32, 64)        204800    \n"," Transpose)                                                      \n","                                                                 \n"," leaky_re_lu_2 (LeakyReLU)   (None, 32, 32, 64)        0         \n","                                                                 \n"," dropout_1 (Dropout)         (None, 32, 32, 64)        0         \n","                                                                 \n"," conv2d_transpose_2 (Conv2D  (None, 64, 64, 32)        51200     \n"," Transpose)                                                      \n","                                                                 \n"," leaky_re_lu_3 (LeakyReLU)   (None, 64, 64, 32)        0         \n","                                                                 \n"," dropout_2 (Dropout)         (None, 64, 64, 32)        0         \n","                                                                 \n"," conv2d_transpose_3 (Conv2D  (None, 128, 128, 16)      12800     \n"," Transpose)                                                      \n","                                                                 \n"," leaky_re_lu_4 (LeakyReLU)   (None, 128, 128, 16)      0         \n","                                                                 \n"," dropout_3 (Dropout)         (None, 128, 128, 16)      0         \n","                                                                 \n"," conv2d_transpose_4 (Conv2D  (None, 128, 128, 3)       1200      \n"," Transpose)                                                      \n","                                                                 \n","=================================================================\n","Total params: 1908400 (7.28 MB)\n","Trainable params: 1908400 (7.28 MB)\n","Non-trainable params: 0 (0.00 Byte)\n","_______________________________________________________________
…
ta":{"colab":{"base_uri":"https://localhost:8080/"},"executionInfo":{"elapsed":5,"status":"ok","timestamp":1716945884825,"user":{"displayName":"127 ENA","userId":"00901681442892532189"},"user_tz":-540},"id":"JnyoRxouWE3T","outputId":"4392d471-2306-4786-b220-b2fba58761f4"},"outputs":[{"output_type":"stream","name":"stdout","text":["Model: \"sequential_1\"\n","_________________________________________________________________\n"," Layer (type)                Output Shape              Param #   \n","=================================================================\n"," conv2d (Conv2D)             (None, 64, 64, 64)        4864      \n","                                                                 \n"," dropout_4 (Dropout)         (None, 64, 64, 64)        0         \n","                                                                 \n"," conv2d_1 (Conv2D)           (None, 32, 32, 64)        36928     \n","                                                                 \n"," dropout_5 (Dropout)         (None, 32, 32, 64)        0         \n","                                                                 \n"," conv2d_2 (Conv2D)           (None, 16, 16, 64)        36928     \n","                                                                 \n"," dropout_6 (Dropout)         (None, 16, 16, 64)        0         \n","                                                                 \n"," conv2d_3 (Conv2D)           (None, 8, 8, 64)          36928     \n","                                                                 \n"," dropout_7 (Dropout)         (None, 8, 8, 64)          0         \n","                                                                 \n"," flatten (Flatten)           (None, 4096)              0         \n","                                                                 \n"," dense_1 (Dense)             (None, 1)                 4097      \n","                                                                 \n","=================================================================\n","Total params: 119745 (467.75 KB)\n","Trainable params: 119745 (467.75 KB)\n","Non-trainable params: 0 (0.00 Byte)\n","_________________________________________________________________\n"]}],"source":["discriminator.summary()\n"]},{"cell_type":"markd
…
